…
-     "output_type": "stream",
-     "text": [
-      "  7%|â–‹         | 7/100 [35:15<7:48:22, 302.18s/it]"
-     ]
-    },
-    {
-     "name": "stdout",
-     "output_type": "stream",
-     "text": [
-      "Images [10000/10000 (100%)] Loss: 0.48 Accuracy: 8086/10000 (80.86%) Time: Thu Nov 28 17:43:47 2024\n"
-     ]
-    },
-    {
-     "name": "stderr",
-     "output_type": "stream",
-     "text": [
-      "\n"
-     ]
-    },
     {
      "data": {
+      "text/html": [
+       "Finishing last run (ID:fgmdjaop) before initializing another..."
+      ],
       "text/plain": [
-       "ResNet(\n",
-       "  (conv1): Conv2d(3, 64, kernel_size=(7, 7), stride=(2, 2), padding=(3, 3), bias=False)\n",
-       "  (bn1): BatchNorm2d(64, eps=1e-05, momentum=0.1, affine=True, track_running_stats=True)\n",
-       "  (relu): ReLU(inplace=True)\n",
-       "  (maxpool): MaxPool2d(kernel_size=3, stride=2, padding=1, dilation=1, ceil_mode=False)\n",
-       "  (layer1): Sequential(\n",
-       "    (0): BasicBlock(\n",
-       "      (conv1): Conv2d(64, 64, kernel_size=(3, 3), stride=(1, 1), padding=(1, 1), bias=False)\n",
-       "      (bn1): BatchNorm2d(64, eps=1e-05, momentum=0.1, affine=True, track_running_stats=True)\n",
-       "      (relu): ReLU(inplace=True)\n",
-       "      (conv2): Conv2d(64, 64, kernel_size=(3, 3), stride=(1, 1), padding=(1, 1), bias=False)\n",
-       "      (bn2): BatchNorm2d(64, eps=1e-05, momentum=0.1, affine=True, track_running_stats=True)\n",
-       "    )\n",
-       "    (1): BasicBlock(\n",
-       "      (conv1): Conv2d(64, 64, kernel_size=(3, 3), stride=(1, 1), padding=(1, 1), bias=False)\n",
-       "      (bn1): BatchNorm2d(64, eps=1e-05, momentum=0.1, affine=True, track_running_stats=True)\n",
-       "      (relu): ReLU(inplace=True)\n",
-       "      (conv2): Conv2d(64, 64, kernel_size=(3, 3), stride=(1, 1), padding=(1, 1), bias=False)\n",
-       "      (bn2): BatchNorm2d(64, eps=1e-05, momentum=0.1, affine=True, track_running_stats=True)\n",
-       "    )\n",
-       "  )\n",
-       "  (layer2): Sequential(\n",
-       "    (0): BasicBlock(\n",
-       "      (conv1): Conv2d(64, 128, kernel_size=(3, 3), stride=(2, 2), padding=(1, 1), bias=False)\n",
-       "      (bn1): BatchNorm2d(128, eps=1e-05, momentum=0.1, affine=True, track_running_stats=True)\n",
-       "      (relu): ReLU(inplace=True)\n",
-       "      (conv2): Conv2d(128, 128, kernel_size=(3, 3), stride=(1, 1), padding=(1, 1), bias=False)\n",
-       "      (bn2): BatchNorm2d(128, eps=1e-05, momentum=0.1, affine=True, track_running_stats=True)\n",
-       "      (downsample): Sequential(\n",
-       "        (0): Conv2d(64, 128, kernel_size=(1, 1), stride=(2, 2), bias=False)\n",
-       "        (1): BatchNorm2d(128, eps=1e-05, momentum=0.1, affine=True, track_running_stats=True)\n",
-       "      )\n",
-       "    )\n",
-       "    (1): BasicBlock(\n",
-       "      (conv1): Conv2d(128, 128, kernel_size=(3, 3), stride=(1, 1), padding=(1, 1), bias=False)\n",
-       "      (bn1): BatchNorm2d(128, eps=1e-05, momentum=0.1, affine=True, track_running_stats=True)\n",
-       "      (relu): ReLU(inplace=True)\n",
-       "      (conv2): Conv2d(128, 128, kernel_size=(3, 3), stride=(1, 1), padding=(1, 1), bias=False)\n",
-       "      (bn2): BatchNorm2d(128, eps=1e-05, momentum=0.1, affine=True, track_running_stats=True)\n",
-       "    )\n",
-       "  )\n",
-       "  (layer3): Sequential(\n",
-       "    (0): BasicBlock(\n",
-       "      (conv1): Conv2d(128, 256, kernel_size=(3, 3), stride=(2, 2), padding=(1, 1), bias=False)\n",
-       "      (bn1): BatchNorm2d(256, eps=1e-05, momentum=0.1, affine=True, track_running_stats=True)\n",
-       "      (relu): ReLU(inplace=True)\n",
-       "      (conv2): Conv2d(256, 256, kernel_size=(3, 3), stride=(1, 1), padding=(1, 1), bias=False)\n",
-       "      (bn2): BatchNorm2d(256, eps=1e-05, momentum=0.1, affine=True, track_running_stats=True)\n",
-       "      (downsample): Sequential(\n",
-       "        (0): Conv2d(128, 256, kernel_size=(1, 1), stride=(2, 2), bias=False)\n",
-       "        (1): BatchNorm2d(256, eps=1e-05, momentum=0.1, affine=True, track_running_stats=True)\n",
-       "      )\n",
-       "    )\n",
-       "    (1): BasicBlock(\n",
-       "      (conv1): Conv2d(256, 256, kernel_size=(3, 3), stride=(1, 1), padding=(1, 1), bias=False)\n",
-       "      (bn1): BatchNorm2d(256, eps=1e-05, momentum=0.1, affine=True, track_running_stats=True)\n",
-       "      (relu): ReLU(inplace=True)\n",
-       "      (conv2): Conv2d(256, 256, kernel_size=(3, 3), stride=(1, 1), padding=(1, 1), bias=False)\n",
-       "      (bn2): BatchNorm2d(256, eps=1e-05, momentum=0.1, affine=True, track_running_stats=True)\n",
-       "    )\n",
-       "  )\n",
-       "  (layer4): Sequential(\n",
-       "    (0): BasicBlock(\n",
-       "      (conv1): Conv2d(256, 512, kernel_size=(3, 3), stride=(2, 2), padding=(1, 1), bias=False)\n",
-       "      (bn1): BatchNorm2d(512, eps=1e-05, momentum=0.1, affine=True, track_running_stats=True)\n",
-       "      (relu): ReLU(inplace=True)\n",
-       "      (conv2): Conv2d(512, 512, kernel_size=(3, 3), stride=(1, 1), padding=(1, 1), bias=False)\n",
-       "      (bn2): BatchNorm2d(512, eps=1e-05, momentum=0.1, affine=True, track_running_stats=True)\n",
-       "      (downsample): Sequential(\n",
-       "        (0): Conv2d(256, 512, kernel_size=(1, 1), stride=(2, 2), bias=False)\n",
-       "        (1): BatchNorm2d(512, eps=1e-05, momentum=0.1, affine=True, track_running_stats=True)\n",
-       "      )\n",
-       "    )\n",
-       "    (1): BasicBlock(\n",
-       "      (conv1): Conv2d(512, 512, kernel_size=(3, 3), stride=(1, 1), padding=(1, 1), bias=False)\n",
-       "      (bn1): BatchNorm2d(512, eps=1e-05, momentum=0.1, affine=True, track_running_stats=True)\n",
-       "      (relu): ReLU(inplace=True)\n",
-       "      (conv2): Conv2d(512, 512, kernel_size=(3, 3), stride=(1, 1), padding=(1, 1), bias=False)\n",
-       "      (bn2): BatchNorm2d(512, eps=1e-05, momentum=0.1, affine=True, track_running_stats=True)\n",
-       "    )\n",
-       "  )\n",
-       "  (avgpool): AdaptiveAvgPool2d(output_size=(1, 1))\n",
-       "  (fc): Sequential(\n",
-       "    (0): Linear(in_features=512, out_features=10, bias=True)\n",
-       "  )\n",
-       ")"
+       "<IPython.core.display.HTML object>"
       ]
      },
-     "execution_count": 8,
      "metadata": {},
-     "output_type": "execute_result"
+     "output_type": "display_data"
     }
    ],
    "source": [
-    "def test(model, test_loader, criterion, device):\n",
+    "config = Config()\n",
+    "config.DEVICE = torch.device(\"cuda:0\" if torch.cuda.is_available() else \"cpu\")\n",
…
